{"class_name": "Model", "config": {"name": "model_1", "layers": [{"name": "input_1", "class_name": "InputLayer", "config": {"batch_input_shape": [null, 512, 512, 3], "dtype": "float32", "sparse": false, "name": "input_1"}, "inbound_nodes": []}, {"name": "Conv1", "class_name": "Conv2D", "config": {"name": "Conv1", "trainable": true, "filters": 32, "kernel_size": [3, 3], "strides": [2, 2], "padding": "same", "data_format": "channels_last", "dilation_rate": [1, 1], "activation": "linear", "use_bias": false, "kernel_initializer": {"class_name": "VarianceScaling", "config": {"scale": 1.0, "mode": "fan_avg", "distribution": "uniform", "seed": null}}, "bias_initializer": {"class_name": "Zeros", "config": {}}, "kernel_regularizer": null, "bias_regularizer": null, "activity_regularizer": null, "kernel_constraint": null, "bias_constraint": null}, "inbound_nodes": [[["input_1", 0, 0, {}]]]}, {"name": "bn_Conv1", "class_name": "BatchNormalization", "config": {"name": "bn_Conv1", "trainable": true, "axis": -1, "momentum": 0.999, "epsilon": 0.001, "center": true, "scale": true, "beta_initializer": {"class_name": "Zeros", "config": {}}, "gamma_initializer": {"class_name": "Ones", "config": {}}, "moving_mean_initializer": {"class_name": "Zeros", "config": {}}, "moving_variance_initializer": {"class_name": "Ones", "config": {}}, "beta_regularizer": null, "gamma_regularizer": null, "beta_constraint": null, "gamma_constraint": null}, "inbound_nodes": [[["Conv1", 0, 0, {}]]]}, {"name": "Conv1_relu", "class_name": "ReLU", "config": {"name": "Conv1_relu", "trainable": true, "max_value": 6.0}, "inbound_nodes": [[["bn_Conv1", 0, 0, {}]]]}, {"name": "expanded_conv_depthwise", "class_name": "DepthwiseConv2D", "config": {"name": "expanded_conv_depthwise", "trainable": true, "kernel_size": [3, 3], "strides": [1, 1], "padding": "same", "data_format": "channels_last", "dilation_rate": [1, 1], "activation": "linear", "use_bias": false, "bias_initializer": {"class_name": "Zeros", "config": {}}, "bias_regularizer": null, "activity_regularizer": null, "bias_constraint": null, "depth_multiplier": 1, "depthwise_initializer": {"class_name": "VarianceScaling", "config": {"scale": 1.0, "mode": "fan_avg", "distribution": "uniform", "seed": null}}, "depthwise_regularizer": null, "depthwise_constraint": null}, "inbound_nodes": [[["Conv1_relu", 0, 0, {}]]]}, {"name": "expanded_conv_depthwise_BN", "class_name": "BatchNormalization", "config": {"name": "expanded_conv_depthwise_BN", "trainable": true, "axis": -1, "momentum": 0.999, "epsilon": 0.001, "center": true, "scale": true, "beta_initializer": {"class_name": "Zeros", "config": {}}, "gamma_initializer": {"class_name": "Ones", "config": {}}, "moving_mean_initializer": {"class_name": "Zeros", "config": {}}, "moving_variance_initializer": {"class_name": "Ones", "config": {}}, "beta_regularizer": null, "gamma_regularizer": null, "beta_constraint": null, "gamma_constraint": null}, "inbound_nodes": [[["expanded_conv_depthwise", 0, 0, {}]]]}, {"name": "expanded_conv_depthwise_relu", "class_name": "ReLU", "config": {"name": "expanded_conv_depthwise_relu", "trainable": true, "max_value": 6.0}, "inbound_nodes": [[["expanded_conv_depthwise_BN", 0, 0, {}]]]}, {"name": "expanded_conv_project", "class_name": "Conv2D", "config": {"name": "expanded_conv_project", "trainable": true, "filters": 16, "kernel_size": [1, 1], "strides": [1, 1], "padding": "same", "data_format": "channels_last", "dilation_rate": [1, 1], "activation": "linear", "use_bias": false, "kernel_initializer": {"class_name": "VarianceScaling", "config": {"scale": 1.0, "mode": "fan_avg", "distribution": "uniform", "seed": null}}, "bias_initializer": {"class_name": "Zeros", "config": {}}, "kernel_regularizer": null, "bias_regularizer": null, "activity_regularizer": null, "kernel_constraint": null, "bias_constraint": null}, "inbound_nodes": [[["expanded_conv_depthwise_relu", 0, 0, {}]]]}, {"name": "expanded_conv_project_BN", "class_name": "BatchNormalization", "config": {"name": "expanded_conv_project_BN", "trainable": true, "axis": -1, "momentum": 0.999, "epsilon": 0.001, "center": true, "scale": true, "beta_initializer": {"class_name": "Zeros", "config": {}}, "gamma_initializer": {"class_name": "Ones", "config": {}}, "moving_mean_initializer": {"class_name": "Zeros", "config": {}}, "moving_variance_initializer": {"class_name": "Ones", "config": {}}, "beta_regularizer": null, "gamma_regularizer": null, "beta_constraint": null, "gamma_constraint": null}, "inbound_nodes": [[["expanded_conv_project", 0, 0, {}]]]}, {"name": "block_1_expand", "class_name": "Conv2D", "config": {"name": "block_1_expand", "trainable": true, "filters": 96, "kernel_size": [1, 1], "strides": [1, 1], "padding": "same", "data_format": "channels_last", "dilation_rate": [1, 1], "activation": "linear", "use_bias": false, "kernel_initializer": {"class_name": "VarianceScaling", "config": {"scale": 1.0, "mode": "fan_avg", "distribution": "uniform", "seed": null}}, "bias_initializer": {"class_name": "Zeros", "config": {}}, "kernel_regularizer": null, "bias_regularizer": null, "activity_regularizer": null, "kernel_constraint": null, "bias_constraint": null}, "inbound_nodes": [[["expanded_conv_project_BN", 0, 0, {}]]]}, {"name": "block_1_expand_BN", "class_name": "BatchNormalization", "config": {"name": "block_1_expand_BN", "trainable": true, "axis": -1, "momentum": 0.999, "epsilon": 0.001, "center": true, "scale": true, "beta_initializer": {"class_name": "Zeros", "config": {}}, "gamma_initializer": {"class_name": "Ones", "config": {}}, "moving_mean_initializer": {"class_name": "Zeros", "config": {}}, "moving_variance_initializer": {"class_name": "Ones", "config": {}}, "beta_regularizer": null, "gamma_regularizer": null, "beta_constraint": null, "gamma_constraint": null}, "inbound_nodes": [[["block_1_expand", 0, 0, {}]]]}, {"name": "block_1_expand_relu", "class_name": "ReLU", "config": {"name": "block_1_expand_relu", "trainable": true, "max_value": 6.0}, "inbound_nodes": [[["block_1_expand_BN", 0, 0, {}]]]}, {"name": "block_1_depthwise", "class_name": "DepthwiseConv2D", "config": {"name": "block_1_depthwise", "trainable": true, "kernel_size": [3, 3], "strides": [2, 2], "padding": "same", "data_format": "channels_last", "dilation_rate": [1, 1], "activation": "linear", "use_bias": false, "bias_initializer": {"class_name": "Zeros", "config": {}}, "bias_regularizer": null, "activity_regularizer": null, "bias_constraint": null, "depth_multiplier": 1, "depthwise_initializer": {"class_name": "VarianceScaling", "config": {"scale": 1.0, "mode": "fan_avg", "distribution": "uniform", "seed": null}}, "depthwise_regularizer": null, "depthwise_constraint": null}, "inbound_nodes": [[["block_1_expand_relu", 0, 0, {}]]]}, {"name": "block_1_depthwise_BN", "class_name": "BatchNormalization", "config": {"name": "block_1_depthwise_BN", "trainable": true, "axis": -1, "momentum": 0.999, "epsilon": 0.001, "center": true, "scale": true, "beta_initializer": {"class_name": "Zeros", "config": {}}, "gamma_initializer": {"class_name": "Ones", "config": {}}, "moving_mean_initializer": {"class_name": "Zeros", "config": {}}, "moving_variance_initializer": {"class_name": "Ones", "config": {}}, "beta_regularizer": null, "gamma_regularizer": null, "beta_constraint": null, "gamma_constraint": null}, "inbound_nodes": [[["block_1_depthwise", 0, 0, {}]]]}, {"name": "block_1_depthwise_relu", "class_name": "ReLU", "config": {"name": "block_1_depthwise_relu", "trainable": true, "max_value": 6.0}, "inbound_nodes": [[["block_1_depthwise_BN", 0, 0, {}]]]}, {"name": "block_1_project", "class_name": "Conv2D", "config": {"name": "block_1_project", "trainable": true, "filters": 24, "kernel_size": [1, 1], "strides": [1, 1], "padding": "same", "data_format": "channels_last", "dilation_rate": [1, 1], "activation": "linear", "use_bias": false, "kernel_initializer": {"class_name": "VarianceScaling", "config": {"scale": 1.0, "mode": "fan_avg", "distribution": "uniform", "seed": null}}, "bias_initializer": {"class_name": "Zeros", "config": {}}, "kernel_regularizer": null, "bias_regularizer": null, "activity_regularizer": null, "kernel_constraint": null, "bias_constraint": null}, "inbound_nodes": [[["block_1_depthwise_relu", 0, 0, {}]]]}, {"name": "block_1_project_BN", "class_name": "BatchNormalization", "config": {"name": "block_1_project_BN", "trainable": true, "axis": -1, "momentum": 0.999, "epsilon": 0.001, "center": true, "scale": true, "beta_initializer": {"class_name": "Zeros", "config": {}}, "gamma_initializer": {"class_name": "Ones", "config": {}}, "moving_mean_initializer": {"class_name": "Zeros", "config": {}}, "moving_variance_initializer": {"class_name": "Ones", "config": {}}, "beta_regularizer": null, "gamma_regularizer": null, "beta_constraint": null, "gamma_constraint": null}, "inbound_nodes": [[["block_1_project", 0, 0, {}]]]}, {"name": "block_2_expand", "class_name": "Conv2D", "config": {"name": "block_2_expand", "trainable": true, "filters": 144, "kernel_size": [1, 1], "strides": [1, 1], "padding": "same", "data_format": "channels_last", "dilation_rate": [1, 1], "activation": "linear", "use_bias": false, "kernel_initializer": {"class_name": "VarianceScaling", "config": {"scale": 1.0, "mode": "fan_avg", "distribution": "uniform", "seed": null}}, "bias_initializer": {"class_name": "Zeros", "config": {}}, "kernel_regularizer": null, "bias_regularizer": null, "activity_regularizer": null, "kernel_constraint": null, "bias_constraint": null}, "inbound_nodes": [[["block_1_project_BN", 0, 0, {}]]]}, {"name": "block_2_expand_BN", "class_name": "BatchNormalization", "config": {"name": "block_2_expand_BN", "trainable": true, "axis": -1, "momentum": 0.999, "epsilon": 0.001, "center": true, "scale": true, "beta_initializer": {"class_name": "Zeros", "config": {}}, "gamma_initializer": {"class_name": "Ones", "config": {}}, "moving_mean_initializer": {"class_name": "Zeros", "config": {}}, "moving_variance_initializer": {"class_name": "Ones", "config": {}}, "beta_regularizer": null, "gamma_regularizer": null, "beta_constraint": null, "gamma_constraint": null}, "inbound_nodes": [[["block_2_expand", 0, 0, {}]]]}, {"name": "block_2_expand_relu", "class_name": "ReLU", "config": {"name": "block_2_expand_relu", "trainable": true, "max_value": 6.0}, "inbound_nodes": [[["block_2_expand_BN", 0, 0, {}]]]}, {"name": "block_2_depthwise", "class_name": "DepthwiseConv2D", "config": {"name": "block_2_depthwise", "trainable": true, "kernel_size": [3, 3], "strides": [1, 1], "padding": "same", "data_format": "channels_last", "dilation_rate": [1, 1], "activation": "linear", "use_bias": false, "bias_initializer": {"class_name": "Zeros", "config": {}}, "bias_regularizer": null, "activity_regularizer": null, "bias_constraint": null, "depth_multiplier": 1, "depthwise_initializer": {"class_name": "VarianceScaling", "config": {"scale": 1.0, "mode": "fan_avg", "distribution": "uniform", "seed": null}}, "depthwise_regularizer": null, "depthwise_constraint": null}, "inbound_nodes": [[["block_2_expand_relu", 0, 0, {}]]]}, {"name": "block_2_depthwise_BN", "class_name": "BatchNormalization", "config": {"name": "block_2_depthwise_BN", "trainable": true, "axis": -1, "momentum": 0.999, "epsilon": 0.001, "center": true, "scale": true, "beta_initializer": {"class_name": "Zeros", "config": {}}, "gamma_initializer": {"class_name": "Ones", "config": {}}, "moving_mean_initializer": {"class_name": "Zeros", "config": {}}, "moving_variance_initializer": {"class_name": "Ones", "config": {}}, "beta_regularizer": null, "gamma_regularizer": null, "beta_constraint": null, "gamma_constraint": null}, "inbound_nodes": [[["block_2_depthwise", 0, 0, {}]]]}, {"name": "block_2_depthwise_relu", "class_name": "ReLU", "config": {"name": "block_2_depthwise_relu", "trainable": true, "max_value": 6.0}, "inbound_nodes": [[["block_2_depthwise_BN", 0, 0, {}]]]}, {"name": "block_2_project", "class_name": "Conv2D", "config": {"name": "block_2_project", "trainable": true, "filters": 24, "kernel_size": [1, 1], "strides": [1, 1], "padding": "same", "data_format": "channels_last", "dilation_rate": [1, 1], "activation": "linear", "use_bias": false, "kernel_initializer": {"class_name": "VarianceScaling", "config": {"scale": 1.0, "mode": "fan_avg", "distribution": "uniform", "seed": null}}, "bias_initializer": {"class_name": "Zeros", "config": {}}, "kernel_regularizer": null, "bias_regularizer": null, "activity_regularizer": null, "kernel_constraint": null, "bias_constraint": null}, "inbound_nodes": [[["block_2_depthwise_relu", 0, 0, {}]]]}, {"name": "block_2_project_BN", "class_name": "BatchNormalization", "config": {"name": "block_2_project_BN", "trainable": true, "axis": -1, "momentum": 0.999, "epsilon": 0.001, "center": true, "scale": true, "beta_initializer": {"class_name": "Zeros", "config": {}}, "gamma_initializer": {"class_name": "Ones", "config": {}}, "moving_mean_initializer": {"class_name": "Zeros", "config": {}}, "moving_variance_initializer": {"class_name": "Ones", "config": {}}, "beta_regularizer": null, "gamma_regularizer": null, "beta_constraint": null, "gamma_constraint": null}, "inbound_nodes": [[["block_2_project", 0, 0, {}]]]}, {"name": "block_2_add", "class_name": "Add", "config": {"name": "block_2_add", "trainable": true}, "inbound_nodes": [[["block_1_project_BN", 0, 0, {}], ["block_2_project_BN", 0, 0, {}]]]}, {"name": "block_3_expand", "class_name": "Conv2D", "config": {"name": "block_3_expand", "trainable": true, "filters": 144, "kernel_size": [1, 1], "strides": [1, 1], "padding": "same", "data_format": "channels_last", "dilation_rate": [1, 1], "activation": "linear", "use_bias": false, "kernel_initializer": {"class_name": "VarianceScaling", "config": {"scale": 1.0, "mode": "fan_avg", "distribution": "uniform", "seed": null}}, "bias_initializer": {"class_name": "Zeros", "config": {}}, "kernel_regularizer": null, "bias_regularizer": null, "activity_regularizer": null, "kernel_constraint": null, "bias_constraint": null}, "inbound_nodes": [[["block_2_add", 0, 0, {}]]]}, {"name": "block_3_expand_BN", "class_name": "BatchNormalization", "config": {"name": "block_3_expand_BN", "trainable": true, "axis": -1, "momentum": 0.999, "epsilon": 0.001, "center": true, "scale": true, "beta_initializer": {"class_name": "Zeros", "config": {}}, "gamma_initializer": {"class_name": "Ones", "config": {}}, "moving_mean_initializer": {"class_name": "Zeros", "config": {}}, "moving_variance_initializer": {"class_name": "Ones", "config": {}}, "beta_regularizer": null, "gamma_regularizer": null, "beta_constraint": null, "gamma_constraint": null}, "inbound_nodes": [[["block_3_expand", 0, 0, {}]]]}, {"name": "block_3_expand_relu", "class_name": "ReLU", "config": {"name": "block_3_expand_relu", "trainable": true, "max_value": 6.0}, "inbound_nodes": [[["block_3_expand_BN", 0, 0, {}]]]}, {"name": "block_3_depthwise", "class_name": "DepthwiseConv2D", "config": {"name": "block_3_depthwise", "trainable": true, "kernel_size": [3, 3], "strides": [2, 2], "padding": "same", "data_format": "channels_last", "dilation_rate": [1, 1], "activation": "linear", "use_bias": false, "bias_initializer": {"class_name": "Zeros", "config": {}}, "bias_regularizer": null, "activity_regularizer": null, "bias_constraint": null, "depth_multiplier": 1, "depthwise_initializer": {"class_name": "VarianceScaling", "config": {"scale": 1.0, "mode": "fan_avg", "distribution": "uniform", "seed": null}}, "depthwise_regularizer": null, "depthwise_constraint": null}, "inbound_nodes": [[["block_3_expand_relu", 0, 0, {}]]]}, {"name": "block_3_depthwise_BN", "class_name": "BatchNormalization", "config": {"name": "block_3_depthwise_BN", "trainable": true, "axis": -1, "momentum": 0.999, "epsilon": 0.001, "center": true, "scale": true, "beta_initializer": {"class_name": "Zeros", "config": {}}, "gamma_initializer": {"class_name": "Ones", "config": {}}, "moving_mean_initializer": {"class_name": "Zeros", "config": {}}, "moving_variance_initializer": {"class_name": "Ones", "config": {}}, "beta_regularizer": null, "gamma_regularizer": null, "beta_constraint": null, "gamma_constraint": null}, "inbound_nodes": [[["block_3_depthwise", 0, 0, {}]]]}, {"name": "block_3_depthwise_relu", "class_name": "ReLU", "config": {"name": "block_3_depthwise_relu", "trainable": true, "max_value": 6.0}, "inbound_nodes": [[["block_3_depthwise_BN", 0, 0, {}]]]}, {"name": "block_3_project", "class_name": "Conv2D", "config": {"name": "block_3_project", "trainable": true, "filters": 32, "kernel_size": [1, 1], "strides": [1, 1], "padding": "same", "data_format": "channels_last", "dilation_rate": [1, 1], "activation": "linear", "use_bias": false, "kernel_initializer": {"class_name": "VarianceScaling", "config": {"scale": 1.0, "mode": "fan_avg", "distribution": "uniform", "seed": null}}, "bias_initializer": {"class_name": "Zeros", "config": {}}, "kernel_regularizer": null, "bias_regularizer": null, "activity_regularizer": null, "kernel_constraint": null, "bias_constraint": null}, "inbound_nodes": [[["block_3_depthwise_relu", 0, 0, {}]]]}, {"name": "block_3_project_BN", "class_name": "BatchNormalization", "config": {"name": "block_3_project_BN", "trainable": true, "axis": -1, "momentum": 0.999, "epsilon": 0.001, "center": true, "scale": true, "beta_initializer": {"class_name": "Zeros", "config": {}}, "gamma_initializer": {"class_name": "Ones", "config": {}}, "moving_mean_initializer": {"class_name": "Zeros", "config": {}}, "moving_variance_initializer": {"class_name": "Ones", "config": {}}, "beta_regularizer": null, "gamma_regularizer": null, "beta_constraint": null, "gamma_constraint": null}, "inbound_nodes": [[["block_3_project", 0, 0, {}]]]}, {"name": "block_4_expand", "class_name": "Conv2D", "config": {"name": "block_4_expand", "trainable": true, "filters": 192, "kernel_size": [1, 1], "strides": [1, 1], "padding": "same", "data_format": "channels_last", "dilation_rate": [1, 1], "activation": "linear", "use_bias": false, "kernel_initializer": {"class_name": "VarianceScaling", "config": {"scale": 1.0, "mode": "fan_avg", "distribution": "uniform", "seed": null}}, "bias_initializer": {"class_name": "Zeros", "config": {}}, "kernel_regularizer": null, "bias_regularizer": null, "activity_regularizer": null, "kernel_constraint": null, "bias_constraint": null}, "inbound_nodes": [[["block_3_project_BN", 0, 0, {}]]]}, {"name": "block_4_expand_BN", "class_name": "BatchNormalization", "config": {"name": "block_4_expand_BN", "trainable": true, "axis": -1, "momentum": 0.999, "epsilon": 0.001, "center": true, "scale": true, "beta_initializer": {"class_name": "Zeros", "config": {}}, "gamma_initializer": {"class_name": "Ones", "config": {}}, "moving_mean_initializer": {"class_name": "Zeros", "config": {}}, "moving_variance_initializer": {"class_name": "Ones", "config": {}}, "beta_regularizer": null, "gamma_regularizer": null, "beta_constraint": null, "gamma_constraint": null}, "inbound_nodes": [[["block_4_expand", 0, 0, {}]]]}, {"name": "block_4_expand_relu", "class_name": "ReLU", "config": {"name": "block_4_expand_relu", "trainable": true, "max_value": 6.0}, "inbound_nodes": [[["block_4_expand_BN", 0, 0, {}]]]}, {"name": "block_4_depthwise", "class_name": "DepthwiseConv2D", "config": {"name": "block_4_depthwise", "trainable": true, "kernel_size": [3, 3], "strides": [1, 1], "padding": "same", "data_format": "channels_last", "dilation_rate": [1, 1], "activation": "linear", "use_bias": false, "bias_initializer": {"class_name": "Zeros", "config": {}}, "bias_regularizer": null, "activity_regularizer": null, "bias_constraint": null, "depth_multiplier": 1, "depthwise_initializer": {"class_name": "VarianceScaling", "config": {"scale": 1.0, "mode": "fan_avg", "distribution": "uniform", "seed": null}}, "depthwise_regularizer": null, "depthwise_constraint": null}, "inbound_nodes": [[["block_4_expand_relu", 0, 0, {}]]]}, {"name": "block_4_depthwise_BN", "class_name": "BatchNormalization", "config": {"name": "block_4_depthwise_BN", "trainable": true, "axis": -1, "momentum": 0.999, "epsilon": 0.001, "center": true, "scale": true, "beta_initializer": {"class_name": "Zeros", "config": {}}, "gamma_initializer": {"class_name": "Ones", "config": {}}, "moving_mean_initializer": {"class_name": "Zeros", "config": {}}, "moving_variance_initializer": {"class_name": "Ones", "config": {}}, "beta_regularizer": null, "gamma_regularizer": null, "beta_constraint": null, "gamma_constraint": null}, "inbound_nodes": [[["block_4_depthwise", 0, 0, {}]]]}, {"name": "block_4_depthwise_relu", "class_name": "ReLU", "config": {"name": "block_4_depthwise_relu", "trainable": true, "max_value": 6.0}, "inbound_nodes": [[["block_4_depthwise_BN", 0, 0, {}]]]}, {"name": "block_4_project", "class_name": "Conv2D", "config": {"name": "block_4_project", "trainable": true, "filters": 32, "kernel_size": [1, 1], "strides": [1, 1], "padding": "same", "data_format": "channels_last", "dilation_rate": [1, 1], "activation": "linear", "use_bias": false, "kernel_initializer": {"class_name": "VarianceScaling", "config": {"scale": 1.0, "mode": "fan_avg", "distribution": "uniform", "seed": null}}, "bias_initializer": {"class_name": "Zeros", "config": {}}, "kernel_regularizer": null, "bias_regularizer": null, "activity_regularizer": null, "kernel_constraint": null, "bias_constraint": null}, "inbound_nodes": [[["block_4_depthwise_relu", 0, 0, {}]]]}, {"name": "block_4_project_BN", "class_name": "BatchNormalization", "config": {"name": "block_4_project_BN", "trainable": true, "axis": -1, "momentum": 0.999, "epsilon": 0.001, "center": true, "scale": true, "beta_initializer": {"class_name": "Zeros", "config": {}}, "gamma_initializer": {"class_name": "Ones", "config": {}}, "moving_mean_initializer": {"class_name": "Zeros", "config": {}}, "moving_variance_initializer": {"class_name": "Ones", "config": {}}, "beta_regularizer": null, "gamma_regularizer": null, "beta_constraint": null, "gamma_constraint": null}, "inbound_nodes": [[["block_4_project", 0, 0, {}]]]}, {"name": "block_4_add", "class_name": "Add", "config": {"name": "block_4_add", "trainable": true}, "inbound_nodes": [[["block_3_project_BN", 0, 0, {}], ["block_4_project_BN", 0, 0, {}]]]}, {"name": "block_5_expand", "class_name": "Conv2D", "config": {"name": "block_5_expand", "trainable": true, "filters": 192, "kernel_size": [1, 1], "strides": [1, 1], "padding": "same", "data_format": "channels_last", "dilation_rate": [1, 1], "activation": "linear", "use_bias": false, "kernel_initializer": {"class_name": "VarianceScaling", "config": {"scale": 1.0, "mode": "fan_avg", "distribution": "uniform", "seed": null}}, "bias_initializer": {"class_name": "Zeros", "config": {}}, "kernel_regularizer": null, "bias_regularizer": null, "activity_regularizer": null, "kernel_constraint": null, "bias_constraint": null}, "inbound_nodes": [[["block_4_add", 0, 0, {}]]]}, {"name": "block_5_expand_BN", "class_name": "BatchNormalization", "config": {"name": "block_5_expand_BN", "trainable": true, "axis": -1, "momentum": 0.999, "epsilon": 0.001, "center": true, "scale": true, "beta_initializer": {"class_name": "Zeros", "config": {}}, "gamma_initializer": {"class_name": "Ones", "config": {}}, "moving_mean_initializer": {"class_name": "Zeros", "config": {}}, "moving_variance_initializer": {"class_name": "Ones", "config": {}}, "beta_regularizer": null, "gamma_regularizer": null, "beta_constraint": null, "gamma_constraint": null}, "inbound_nodes": [[["block_5_expand", 0, 0, {}]]]}, {"name": "block_5_expand_relu", "class_name": "ReLU", "config": {"name": "block_5_expand_relu", "trainable": true, "max_value": 6.0}, "inbound_nodes": [[["block_5_expand_BN", 0, 0, {}]]]}, {"name": "block_5_depthwise", "class_name": "DepthwiseConv2D", "config": {"name": "block_5_depthwise", "trainable": true, "kernel_size": [3, 3], "strides": [1, 1], "padding": "same", "data_format": "channels_last", "dilation_rate": [1, 1], "activation": "linear", "use_bias": false, "bias_initializer": {"class_name": "Zeros", "config": {}}, "bias_regularizer": null, "activity_regularizer": null, "bias_constraint": null, "depth_multiplier": 1, "depthwise_initializer": {"class_name": "VarianceScaling", "config": {"scale": 1.0, "mode": "fan_avg", "distribution": "uniform", "seed": null}}, "depthwise_regularizer": null, "depthwise_constraint": null}, "inbound_nodes": [[["block_5_expand_relu", 0, 0, {}]]]}, {"name": "block_5_depthwise_BN", "class_name": "BatchNormalization", "config": {"name": "block_5_depthwise_BN", "trainable": true, "axis": -1, "momentum": 0.999, "epsilon": 0.001, "center": true, "scale": true, "beta_initializer": {"class_name": "Zeros", "config": {}}, "gamma_initializer": {"class_name": "Ones", "config": {}}, "moving_mean_initializer": {"class_name": "Zeros", "config": {}}, "moving_variance_initializer": {"class_name": "Ones", "config": {}}, "beta_regularizer": null, "gamma_regularizer": null, "beta_constraint": null, "gamma_constraint": null}, "inbound_nodes": [[["block_5_depthwise", 0, 0, {}]]]}, {"name": "block_5_depthwise_relu", "class_name": "ReLU", "config": {"name": "block_5_depthwise_relu", "trainable": true, "max_value": 6.0}, "inbound_nodes": [[["block_5_depthwise_BN", 0, 0, {}]]]}, {"name": "block_5_project", "class_name": "Conv2D", "config": {"name": "block_5_project", "trainable": true, "filters": 32, "kernel_size": [1, 1], "strides": [1, 1], "padding": "same", "data_format": "channels_last", "dilation_rate": [1, 1], "activation": "linear", "use_bias": false, "kernel_initializer": {"class_name": "VarianceScaling", "config": {"scale": 1.0, "mode": "fan_avg", "distribution": "uniform", "seed": null}}, "bias_initializer": {"class_name": "Zeros", "config": {}}, "kernel_regularizer": null, "bias_regularizer": null, "activity_regularizer": null, "kernel_constraint": null, "bias_constraint": null}, "inbound_nodes": [[["block_5_depthwise_relu", 0, 0, {}]]]}, {"name": "block_5_project_BN", "class_name": "BatchNormalization", "config": {"name": "block_5_project_BN", "trainable": true, "axis": -1, "momentum": 0.999, "epsilon": 0.001, "center": true, "scale": true, "beta_initializer": {"class_name": "Zeros", "config": {}}, "gamma_initializer": {"class_name": "Ones", "config": {}}, "moving_mean_initializer": {"class_name": "Zeros", "config": {}}, "moving_variance_initializer": {"class_name": "Ones", "config": {}}, "beta_regularizer": null, "gamma_regularizer": null, "beta_constraint": null, "gamma_constraint": null}, "inbound_nodes": [[["block_5_project", 0, 0, {}]]]}, {"name": "block_5_add", "class_name": "Add", "config": {"name": "block_5_add", "trainable": true}, "inbound_nodes": [[["block_4_add", 0, 0, {}], ["block_5_project_BN", 0, 0, {}]]]}, {"name": "block_6_expand", "class_name": "Conv2D", "config": {"name": "block_6_expand", "trainable": true, "filters": 192, "kernel_size": [1, 1], "strides": [1, 1], "padding": "same", "data_format": "channels_last", "dilation_rate": [1, 1], "activation": "linear", "use_bias": false, "kernel_initializer": {"class_name": "VarianceScaling", "config": {"scale": 1.0, "mode": "fan_avg", "distribution": "uniform", "seed": null}}, "bias_initializer": {"class_name": "Zeros", "config": {}}, "kernel_regularizer": null, "bias_regularizer": null, "activity_regularizer": null, "kernel_constraint": null, "bias_constraint": null}, "inbound_nodes": [[["block_5_add", 0, 0, {}]]]}, {"name": "block_6_expand_BN", "class_name": "BatchNormalization", "config": {"name": "block_6_expand_BN", "trainable": true, "axis": -1, "momentum": 0.999, "epsilon": 0.001, "center": true, "scale": true, "beta_initializer": {"class_name": "Zeros", "config": {}}, "gamma_initializer": {"class_name": "Ones", "config": {}}, "moving_mean_initializer": {"class_name": "Zeros", "config": {}}, "moving_variance_initializer": {"class_name": "Ones", "config": {}}, "beta_regularizer": null, "gamma_regularizer": null, "beta_constraint": null, "gamma_constraint": null}, "inbound_nodes": [[["block_6_expand", 0, 0, {}]]]}, {"name": "block_6_expand_relu", "class_name": "ReLU", "config": {"name": "block_6_expand_relu", "trainable": true, "max_value": 6.0}, "inbound_nodes": [[["block_6_expand_BN", 0, 0, {}]]]}, {"name": "block_6_depthwise", "class_name": "DepthwiseConv2D", "config": {"name": "block_6_depthwise", "trainable": true, "kernel_size": [3, 3], "strides": [2, 2], "padding": "same", "data_format": "channels_last", "dilation_rate": [1, 1], "activation": "linear", "use_bias": false, "bias_initializer": {"class_name": "Zeros", "config": {}}, "bias_regularizer": null, "activity_regularizer": null, "bias_constraint": null, "depth_multiplier": 1, "depthwise_initializer": {"class_name": "VarianceScaling", "config": {"scale": 1.0, "mode": "fan_avg", "distribution": "uniform", "seed": null}}, "depthwise_regularizer": null, "depthwise_constraint": null}, "inbound_nodes": [[["block_6_expand_relu", 0, 0, {}]]]}, {"name": "block_6_depthwise_BN", "class_name": "BatchNormalization", "config": {"name": "block_6_depthwise_BN", "trainable": true, "axis": -1, "momentum": 0.999, "epsilon": 0.001, "center": true, "scale": true, "beta_initializer": {"class_name": "Zeros", "config": {}}, "gamma_initializer": {"class_name": "Ones", "config": {}}, "moving_mean_initializer": {"class_name": "Zeros", "config": {}}, "moving_variance_initializer": {"class_name": "Ones", "config": {}}, "beta_regularizer": null, "gamma_regularizer": null, "beta_constraint": null, "gamma_constraint": null}, "inbound_nodes": [[["block_6_depthwise", 0, 0, {}]]]}, {"name": "block_6_depthwise_relu", "class_name": "ReLU", "config": {"name": "block_6_depthwise_relu", "trainable": true, "max_value": 6.0}, "inbound_nodes": [[["block_6_depthwise_BN", 0, 0, {}]]]}, {"name": "block_6_project", "class_name": "Conv2D", "config": {"name": "block_6_project", "trainable": true, "filters": 64, "kernel_size": [1, 1], "strides": [1, 1], "padding": "same", "data_format": "channels_last", "dilation_rate": [1, 1], "activation": "linear", "use_bias": false, "kernel_initializer": {"class_name": "VarianceScaling", "config": {"scale": 1.0, "mode": "fan_avg", "distribution": "uniform", "seed": null}}, "bias_initializer": {"class_name": "Zeros", "config": {}}, "kernel_regularizer": null, "bias_regularizer": null, "activity_regularizer": null, "kernel_constraint": null, "bias_constraint": null}, "inbound_nodes": [[["block_6_depthwise_relu", 0, 0, {}]]]}, {"name": "block_6_project_BN", "class_name": "BatchNormalization", "config": {"name": "block_6_project_BN", "trainable": true, "axis": -1, "momentum": 0.999, "epsilon": 0.001, "center": true, "scale": true, "beta_initializer": {"class_name": "Zeros", "config": {}}, "gamma_initializer": {"class_name": "Ones", "config": {}}, "moving_mean_initializer": {"class_name": "Zeros", "config": {}}, "moving_variance_initializer": {"class_name": "Ones", "config": {}}, "beta_regularizer": null, "gamma_regularizer": null, "beta_constraint": null, "gamma_constraint": null}, "inbound_nodes": [[["block_6_project", 0, 0, {}]]]}, {"name": "block_7_expand", "class_name": "Conv2D", "config": {"name": "block_7_expand", "trainable": true, "filters": 384, "kernel_size": [1, 1], "strides": [1, 1], "padding": "same", "data_format": "channels_last", "dilation_rate": [1, 1], "activation": "linear", "use_bias": false, "kernel_initializer": {"class_name": "VarianceScaling", "config": {"scale": 1.0, "mode": "fan_avg", "distribution": "uniform", "seed": null}}, "bias_initializer": {"class_name": "Zeros", "config": {}}, "kernel_regularizer": null, "bias_regularizer": null, "activity_regularizer": null, "kernel_constraint": null, "bias_constraint": null}, "inbound_nodes": [[["block_6_project_BN", 0, 0, {}]]]}, {"name": "block_7_expand_BN", "class_name": "BatchNormalization", "config": {"name": "block_7_expand_BN", "trainable": true, "axis": -1, "momentum": 0.999, "epsilon": 0.001, "center": true, "scale": true, "beta_initializer": {"class_name": "Zeros", "config": {}}, "gamma_initializer": {"class_name": "Ones", "config": {}}, "moving_mean_initializer": {"class_name": "Zeros", "config": {}}, "moving_variance_initializer": {"class_name": "Ones", "config": {}}, "beta_regularizer": null, "gamma_regularizer": null, "beta_constraint": null, "gamma_constraint": null}, "inbound_nodes": [[["block_7_expand", 0, 0, {}]]]}, {"name": "block_7_expand_relu", "class_name": "ReLU", "config": {"name": "block_7_expand_relu", "trainable": true, "max_value": 6.0}, "inbound_nodes": [[["block_7_expand_BN", 0, 0, {}]]]}, {"name": "block_7_depthwise", "class_name": "DepthwiseConv2D", "config": {"name": "block_7_depthwise", "trainable": true, "kernel_size": [3, 3], "strides": [1, 1], "padding": "same", "data_format": "channels_last", "dilation_rate": [1, 1], "activation": "linear", "use_bias": false, "bias_initializer": {"class_name": "Zeros", "config": {}}, "bias_regularizer": null, "activity_regularizer": null, "bias_constraint": null, "depth_multiplier": 1, "depthwise_initializer": {"class_name": "VarianceScaling", "config": {"scale": 1.0, "mode": "fan_avg", "distribution": "uniform", "seed": null}}, "depthwise_regularizer": null, "depthwise_constraint": null}, "inbound_nodes": [[["block_7_expand_relu", 0, 0, {}]]]}, {"name": "block_7_depthwise_BN", "class_name": "BatchNormalization", "config": {"name": "block_7_depthwise_BN", "trainable": true, "axis": -1, "momentum": 0.999, "epsilon": 0.001, "center": true, "scale": true, "beta_initializer": {"class_name": "Zeros", "config": {}}, "gamma_initializer": {"class_name": "Ones", "config": {}}, "moving_mean_initializer": {"class_name": "Zeros", "config": {}}, "moving_variance_initializer": {"class_name": "Ones", "config": {}}, "beta_regularizer": null, "gamma_regularizer": null, "beta_constraint": null, "gamma_constraint": null}, "inbound_nodes": [[["block_7_depthwise", 0, 0, {}]]]}, {"name": "block_7_depthwise_relu", "class_name": "ReLU", "config": {"name": "block_7_depthwise_relu", "trainable": true, "max_value": 6.0}, "inbound_nodes": [[["block_7_depthwise_BN", 0, 0, {}]]]}, {"name": "block_7_project", "class_name": "Conv2D", "config": {"name": "block_7_project", "trainable": true, "filters": 64, "kernel_size": [1, 1], "strides": [1, 1], "padding": "same", "data_format": "channels_last", "dilation_rate": [1, 1], "activation": "linear", "use_bias": false, "kernel_initializer": {"class_name": "VarianceScaling", "config": {"scale": 1.0, "mode": "fan_avg", "distribution": "uniform", "seed": null}}, "bias_initializer": {"class_name": "Zeros", "config": {}}, "kernel_regularizer": null, "bias_regularizer": null, "activity_regularizer": null, "kernel_constraint": null, "bias_constraint": null}, "inbound_nodes": [[["block_7_depthwise_relu", 0, 0, {}]]]}, {"name": "block_7_project_BN", "class_name": "BatchNormalization", "config": {"name": "block_7_project_BN", "trainable": true, "axis": -1, "momentum": 0.999, "epsilon": 0.001, "center": true, "scale": true, "beta_initializer": {"class_name": "Zeros", "config": {}}, "gamma_initializer": {"class_name": "Ones", "config": {}}, "moving_mean_initializer": {"class_name": "Zeros", "config": {}}, "moving_variance_initializer": {"class_name": "Ones", "config": {}}, "beta_regularizer": null, "gamma_regularizer": null, "beta_constraint": null, "gamma_constraint": null}, "inbound_nodes": [[["block_7_project", 0, 0, {}]]]}, {"name": "block_7_add", "class_name": "Add", "config": {"name": "block_7_add", "trainable": true}, "inbound_nodes": [[["block_6_project_BN", 0, 0, {}], ["block_7_project_BN", 0, 0, {}]]]}, {"name": "block_8_expand", "class_name": "Conv2D", "config": {"name": "block_8_expand", "trainable": true, "filters": 384, "kernel_size": [1, 1], "strides": [1, 1], "padding": "same", "data_format": "channels_last", "dilation_rate": [1, 1], "activation": "linear", "use_bias": false, "kernel_initializer": {"class_name": "VarianceScaling", "config": {"scale": 1.0, "mode": "fan_avg", "distribution": "uniform", "seed": null}}, "bias_initializer": {"class_name": "Zeros", "config": {}}, "kernel_regularizer": null, "bias_regularizer": null, "activity_regularizer": null, "kernel_constraint": null, "bias_constraint": null}, "inbound_nodes": [[["block_7_add", 0, 0, {}]]]}, {"name": "block_8_expand_BN", "class_name": "BatchNormalization", "config": {"name": "block_8_expand_BN", "trainable": true, "axis": -1, "momentum": 0.999, "epsilon": 0.001, "center": true, "scale": true, "beta_initializer": {"class_name": "Zeros", "config": {}}, "gamma_initializer": {"class_name": "Ones", "config": {}}, "moving_mean_initializer": {"class_name": "Zeros", "config": {}}, "moving_variance_initializer": {"class_name": "Ones", "config": {}}, "beta_regularizer": null, "gamma_regularizer": null, "beta_constraint": null, "gamma_constraint": null}, "inbound_nodes": [[["block_8_expand", 0, 0, {}]]]}, {"name": "block_8_expand_relu", "class_name": "ReLU", "config": {"name": "block_8_expand_relu", "trainable": true, "max_value": 6.0}, "inbound_nodes": [[["block_8_expand_BN", 0, 0, {}]]]}, {"name": "block_8_depthwise", "class_name": "DepthwiseConv2D", "config": {"name": "block_8_depthwise", "trainable": true, "kernel_size": [3, 3], "strides": [1, 1], "padding": "same", "data_format": "channels_last", "dilation_rate": [1, 1], "activation": "linear", "use_bias": false, "bias_initializer": {"class_name": "Zeros", "config": {}}, "bias_regularizer": null, "activity_regularizer": null, "bias_constraint": null, "depth_multiplier": 1, "depthwise_initializer": {"class_name": "VarianceScaling", "config": {"scale": 1.0, "mode": "fan_avg", "distribution": "uniform", "seed": null}}, "depthwise_regularizer": null, "depthwise_constraint": null}, "inbound_nodes": [[["block_8_expand_relu", 0, 0, {}]]]}, {"name": "block_8_depthwise_BN", "class_name": "BatchNormalization", "config": {"name": "block_8_depthwise_BN", "trainable": true, "axis": -1, "momentum": 0.999, "epsilon": 0.001, "center": true, "scale": true, "beta_initializer": {"class_name": "Zeros", "config": {}}, "gamma_initializer": {"class_name": "Ones", "config": {}}, "moving_mean_initializer": {"class_name": "Zeros", "config": {}}, "moving_variance_initializer": {"class_name": "Ones", "config": {}}, "beta_regularizer": null, "gamma_regularizer": null, "beta_constraint": null, "gamma_constraint": null}, "inbound_nodes": [[["block_8_depthwise", 0, 0, {}]]]}, {"name": "block_8_depthwise_relu", "class_name": "ReLU", "config": {"name": "block_8_depthwise_relu", "trainable": true, "max_value": 6.0}, "inbound_nodes": [[["block_8_depthwise_BN", 0, 0, {}]]]}, {"name": "block_8_project", "class_name": "Conv2D", "config": {"name": "block_8_project", "trainable": true, "filters": 64, "kernel_size": [1, 1], "strides": [1, 1], "padding": "same", "data_format": "channels_last", "dilation_rate": [1, 1], "activation": "linear", "use_bias": false, "kernel_initializer": {"class_name": "VarianceScaling", "config": {"scale": 1.0, "mode": "fan_avg", "distribution": "uniform", "seed": null}}, "bias_initializer": {"class_name": "Zeros", "config": {}}, "kernel_regularizer": null, "bias_regularizer": null, "activity_regularizer": null, "kernel_constraint": null, "bias_constraint": null}, "inbound_nodes": [[["block_8_depthwise_relu", 0, 0, {}]]]}, {"name": "block_8_project_BN", "class_name": "BatchNormalization", "config": {"name": "block_8_project_BN", "trainable": true, "axis": -1, "momentum": 0.999, "epsilon": 0.001, "center": true, "scale": true, "beta_initializer": {"class_name": "Zeros", "config": {}}, "gamma_initializer": {"class_name": "Ones", "config": {}}, "moving_mean_initializer": {"class_name": "Zeros", "config": {}}, "moving_variance_initializer": {"class_name": "Ones", "config": {}}, "beta_regularizer": null, "gamma_regularizer": null, "beta_constraint": null, "gamma_constraint": null}, "inbound_nodes": [[["block_8_project", 0, 0, {}]]]}, {"name": "block_8_add", "class_name": "Add", "config": {"name": "block_8_add", "trainable": true}, "inbound_nodes": [[["block_7_add", 0, 0, {}], ["block_8_project_BN", 0, 0, {}]]]}, {"name": "block_9_expand", "class_name": "Conv2D", "config": {"name": "block_9_expand", "trainable": true, "filters": 384, "kernel_size": [1, 1], "strides": [1, 1], "padding": "same", "data_format": "channels_last", "dilation_rate": [1, 1], "activation": "linear", "use_bias": false, "kernel_initializer": {"class_name": "VarianceScaling", "config": {"scale": 1.0, "mode": "fan_avg", "distribution": "uniform", "seed": null}}, "bias_initializer": {"class_name": "Zeros", "config": {}}, "kernel_regularizer": null, "bias_regularizer": null, "activity_regularizer": null, "kernel_constraint": null, "bias_constraint": null}, "inbound_nodes": [[["block_8_add", 0, 0, {}]]]}, {"name": "block_9_expand_BN", "class_name": "BatchNormalization", "config": {"name": "block_9_expand_BN", "trainable": true, "axis": -1, "momentum": 0.999, "epsilon": 0.001, "center": true, "scale": true, "beta_initializer": {"class_name": "Zeros", "config": {}}, "gamma_initializer": {"class_name": "Ones", "config": {}}, "moving_mean_initializer": {"class_name": "Zeros", "config": {}}, "moving_variance_initializer": {"class_name": "Ones", "config": {}}, "beta_regularizer": null, "gamma_regularizer": null, "beta_constraint": null, "gamma_constraint": null}, "inbound_nodes": [[["block_9_expand", 0, 0, {}]]]}, {"name": "block_9_expand_relu", "class_name": "ReLU", "config": {"name": "block_9_expand_relu", "trainable": true, "max_value": 6.0}, "inbound_nodes": [[["block_9_expand_BN", 0, 0, {}]]]}, {"name": "block_9_depthwise", "class_name": "DepthwiseConv2D", "config": {"name": "block_9_depthwise", "trainable": true, "kernel_size": [3, 3], "strides": [1, 1], "padding": "same", "data_format": "channels_last", "dilation_rate": [1, 1], "activation": "linear", "use_bias": false, "bias_initializer": {"class_name": "Zeros", "config": {}}, "bias_regularizer": null, "activity_regularizer": null, "bias_constraint": null, "depth_multiplier": 1, "depthwise_initializer": {"class_name": "VarianceScaling", "config": {"scale": 1.0, "mode": "fan_avg", "distribution": "uniform", "seed": null}}, "depthwise_regularizer": null, "depthwise_constraint": null}, "inbound_nodes": [[["block_9_expand_relu", 0, 0, {}]]]}, {"name": "block_9_depthwise_BN", "class_name": "BatchNormalization", "config": {"name": "block_9_depthwise_BN", "trainable": true, "axis": -1, "momentum": 0.999, "epsilon": 0.001, "center": true, "scale": true, "beta_initializer": {"class_name": "Zeros", "config": {}}, "gamma_initializer": {"class_name": "Ones", "config": {}}, "moving_mean_initializer": {"class_name": "Zeros", "config": {}}, "moving_variance_initializer": {"class_name": "Ones", "config": {}}, "beta_regularizer": null, "gamma_regularizer": null, "beta_constraint": null, "gamma_constraint": null}, "inbound_nodes": [[["block_9_depthwise", 0, 0, {}]]]}, {"name": "block_9_depthwise_relu", "class_name": "ReLU", "config": {"name": "block_9_depthwise_relu", "trainable": true, "max_value": 6.0}, "inbound_nodes": [[["block_9_depthwise_BN", 0, 0, {}]]]}, {"name": "block_9_project", "class_name": "Conv2D", "config": {"name": "block_9_project", "trainable": true, "filters": 64, "kernel_size": [1, 1], "strides": [1, 1], "padding": "same", "data_format": "channels_last", "dilation_rate": [1, 1], "activation": "linear", "use_bias": false, "kernel_initializer": {"class_name": "VarianceScaling", "config": {"scale": 1.0, "mode": "fan_avg", "distribution": "uniform", "seed": null}}, "bias_initializer": {"class_name": "Zeros", "config": {}}, "kernel_regularizer": null, "bias_regularizer": null, "activity_regularizer": null, "kernel_constraint": null, "bias_constraint": null}, "inbound_nodes": [[["block_9_depthwise_relu", 0, 0, {}]]]}, {"name": "block_9_project_BN", "class_name": "BatchNormalization", "config": {"name": "block_9_project_BN", "trainable": true, "axis": -1, "momentum": 0.999, "epsilon": 0.001, "center": true, "scale": true, "beta_initializer": {"class_name": "Zeros", "config": {}}, "gamma_initializer": {"class_name": "Ones", "config": {}}, "moving_mean_initializer": {"class_name": "Zeros", "config": {}}, "moving_variance_initializer": {"class_name": "Ones", "config": {}}, "beta_regularizer": null, "gamma_regularizer": null, "beta_constraint": null, "gamma_constraint": null}, "inbound_nodes": [[["block_9_project", 0, 0, {}]]]}, {"name": "block_9_add", "class_name": "Add", "config": {"name": "block_9_add", "trainable": true}, "inbound_nodes": [[["block_8_add", 0, 0, {}], ["block_9_project_BN", 0, 0, {}]]]}, {"name": "block_10_expand", "class_name": "Conv2D", "config": {"name": "block_10_expand", "trainable": true, "filters": 384, "kernel_size": [1, 1], "strides": [1, 1], "padding": "same", "data_format": "channels_last", "dilation_rate": [1, 1], "activation": "linear", "use_bias": false, "kernel_initializer": {"class_name": "VarianceScaling", "config": {"scale": 1.0, "mode": "fan_avg", "distribution": "uniform", "seed": null}}, "bias_initializer": {"class_name": "Zeros", "config": {}}, "kernel_regularizer": null, "bias_regularizer": null, "activity_regularizer": null, "kernel_constraint": null, "bias_constraint": null}, "inbound_nodes": [[["block_9_add", 0, 0, {}]]]}, {"name": "block_10_expand_BN", "class_name": "BatchNormalization", "config": {"name": "block_10_expand_BN", "trainable": true, "axis": -1, "momentum": 0.999, "epsilon": 0.001, "center": true, "scale": true, "beta_initializer": {"class_name": "Zeros", "config": {}}, "gamma_initializer": {"class_name": "Ones", "config": {}}, "moving_mean_initializer": {"class_name": "Zeros", "config": {}}, "moving_variance_initializer": {"class_name": "Ones", "config": {}}, "beta_regularizer": null, "gamma_regularizer": null, "beta_constraint": null, "gamma_constraint": null}, "inbound_nodes": [[["block_10_expand", 0, 0, {}]]]}, {"name": "block_10_expand_relu", "class_name": "ReLU", "config": {"name": "block_10_expand_relu", "trainable": true, "max_value": 6.0}, "inbound_nodes": [[["block_10_expand_BN", 0, 0, {}]]]}, {"name": "block_10_depthwise", "class_name": "DepthwiseConv2D", "config": {"name": "block_10_depthwise", "trainable": true, "kernel_size": [3, 3], "strides": [1, 1], "padding": "same", "data_format": "channels_last", "dilation_rate": [1, 1], "activation": "linear", "use_bias": false, "bias_initializer": {"class_name": "Zeros", "config": {}}, "bias_regularizer": null, "activity_regularizer": null, "bias_constraint": null, "depth_multiplier": 1, "depthwise_initializer": {"class_name": "VarianceScaling", "config": {"scale": 1.0, "mode": "fan_avg", "distribution": "uniform", "seed": null}}, "depthwise_regularizer": null, "depthwise_constraint": null}, "inbound_nodes": [[["block_10_expand_relu", 0, 0, {}]]]}, {"name": "block_10_depthwise_BN", "class_name": "BatchNormalization", "config": {"name": "block_10_depthwise_BN", "trainable": true, "axis": -1, "momentum": 0.999, "epsilon": 0.001, "center": true, "scale": true, "beta_initializer": {"class_name": "Zeros", "config": {}}, "gamma_initializer": {"class_name": "Ones", "config": {}}, "moving_mean_initializer": {"class_name": "Zeros", "config": {}}, "moving_variance_initializer": {"class_name": "Ones", "config": {}}, "beta_regularizer": null, "gamma_regularizer": null, "beta_constraint": null, "gamma_constraint": null}, "inbound_nodes": [[["block_10_depthwise", 0, 0, {}]]]}, {"name": "block_10_depthwise_relu", "class_name": "ReLU", "config": {"name": "block_10_depthwise_relu", "trainable": true, "max_value": 6.0}, "inbound_nodes": [[["block_10_depthwise_BN", 0, 0, {}]]]}, {"name": "block_10_project", "class_name": "Conv2D", "config": {"name": "block_10_project", "trainable": true, "filters": 96, "kernel_size": [1, 1], "strides": [1, 1], "padding": "same", "data_format": "channels_last", "dilation_rate": [1, 1], "activation": "linear", "use_bias": false, "kernel_initializer": {"class_name": "VarianceScaling", "config": {"scale": 1.0, "mode": "fan_avg", "distribution": "uniform", "seed": null}}, "bias_initializer": {"class_name": "Zeros", "config": {}}, "kernel_regularizer": null, "bias_regularizer": null, "activity_regularizer": null, "kernel_constraint": null, "bias_constraint": null}, "inbound_nodes": [[["block_10_depthwise_relu", 0, 0, {}]]]}, {"name": "block_10_project_BN", "class_name": "BatchNormalization", "config": {"name": "block_10_project_BN", "trainable": true, "axis": -1, "momentum": 0.999, "epsilon": 0.001, "center": true, "scale": true, "beta_initializer": {"class_name": "Zeros", "config": {}}, "gamma_initializer": {"class_name": "Ones", "config": {}}, "moving_mean_initializer": {"class_name": "Zeros", "config": {}}, "moving_variance_initializer": {"class_name": "Ones", "config": {}}, "beta_regularizer": null, "gamma_regularizer": null, "beta_constraint": null, "gamma_constraint": null}, "inbound_nodes": [[["block_10_project", 0, 0, {}]]]}, {"name": "block_11_expand", "class_name": "Conv2D", "config": {"name": "block_11_expand", "trainable": true, "filters": 576, "kernel_size": [1, 1], "strides": [1, 1], "padding": "same", "data_format": "channels_last", "dilation_rate": [1, 1], "activation": "linear", "use_bias": false, "kernel_initializer": {"class_name": "VarianceScaling", "config": {"scale": 1.0, "mode": "fan_avg", "distribution": "uniform", "seed": null}}, "bias_initializer": {"class_name": "Zeros", "config": {}}, "kernel_regularizer": null, "bias_regularizer": null, "activity_regularizer": null, "kernel_constraint": null, "bias_constraint": null}, "inbound_nodes": [[["block_10_project_BN", 0, 0, {}]]]}, {"name": "block_11_expand_BN", "class_name": "BatchNormalization", "config": {"name": "block_11_expand_BN", "trainable": true, "axis": -1, "momentum": 0.999, "epsilon": 0.001, "center": true, "scale": true, "beta_initializer": {"class_name": "Zeros", "config": {}}, "gamma_initializer": {"class_name": "Ones", "config": {}}, "moving_mean_initializer": {"class_name": "Zeros", "config": {}}, "moving_variance_initializer": {"class_name": "Ones", "config": {}}, "beta_regularizer": null, "gamma_regularizer": null, "beta_constraint": null, "gamma_constraint": null}, "inbound_nodes": [[["block_11_expand", 0, 0, {}]]]}, {"name": "block_11_expand_relu", "class_name": "ReLU", "config": {"name": "block_11_expand_relu", "trainable": true, "max_value": 6.0}, "inbound_nodes": [[["block_11_expand_BN", 0, 0, {}]]]}, {"name": "block_11_depthwise", "class_name": "DepthwiseConv2D", "config": {"name": "block_11_depthwise", "trainable": true, "kernel_size": [3, 3], "strides": [1, 1], "padding": "same", "data_format": "channels_last", "dilation_rate": [1, 1], "activation": "linear", "use_bias": false, "bias_initializer": {"class_name": "Zeros", "config": {}}, "bias_regularizer": null, "activity_regularizer": null, "bias_constraint": null, "depth_multiplier": 1, "depthwise_initializer": {"class_name": "VarianceScaling", "config": {"scale": 1.0, "mode": "fan_avg", "distribution": "uniform", "seed": null}}, "depthwise_regularizer": null, "depthwise_constraint": null}, "inbound_nodes": [[["block_11_expand_relu", 0, 0, {}]]]}, {"name": "block_11_depthwise_BN", "class_name": "BatchNormalization", "config": {"name": "block_11_depthwise_BN", "trainable": true, "axis": -1, "momentum": 0.999, "epsilon": 0.001, "center": true, "scale": true, "beta_initializer": {"class_name": "Zeros", "config": {}}, "gamma_initializer": {"class_name": "Ones", "config": {}}, "moving_mean_initializer": {"class_name": "Zeros", "config": {}}, "moving_variance_initializer": {"class_name": "Ones", "config": {}}, "beta_regularizer": null, "gamma_regularizer": null, "beta_constraint": null, "gamma_constraint": null}, "inbound_nodes": [[["block_11_depthwise", 0, 0, {}]]]}, {"name": "block_11_depthwise_relu", "class_name": "ReLU", "config": {"name": "block_11_depthwise_relu", "trainable": true, "max_value": 6.0}, "inbound_nodes": [[["block_11_depthwise_BN", 0, 0, {}]]]}, {"name": "block_11_project", "class_name": "Conv2D", "config": {"name": "block_11_project", "trainable": true, "filters": 96, "kernel_size": [1, 1], "strides": [1, 1], "padding": "same", "data_format": "channels_last", "dilation_rate": [1, 1], "activation": "linear", "use_bias": false, "kernel_initializer": {"class_name": "VarianceScaling", "config": {"scale": 1.0, "mode": "fan_avg", "distribution": "uniform", "seed": null}}, "bias_initializer": {"class_name": "Zeros", "config": {}}, "kernel_regularizer": null, "bias_regularizer": null, "activity_regularizer": null, "kernel_constraint": null, "bias_constraint": null}, "inbound_nodes": [[["block_11_depthwise_relu", 0, 0, {}]]]}, {"name": "block_11_project_BN", "class_name": "BatchNormalization", "config": {"name": "block_11_project_BN", "trainable": true, "axis": -1, "momentum": 0.999, "epsilon": 0.001, "center": true, "scale": true, "beta_initializer": {"class_name": "Zeros", "config": {}}, "gamma_initializer": {"class_name": "Ones", "config": {}}, "moving_mean_initializer": {"class_name": "Zeros", "config": {}}, "moving_variance_initializer": {"class_name": "Ones", "config": {}}, "beta_regularizer": null, "gamma_regularizer": null, "beta_constraint": null, "gamma_constraint": null}, "inbound_nodes": [[["block_11_project", 0, 0, {}]]]}, {"name": "block_11_add", "class_name": "Add", "config": {"name": "block_11_add", "trainable": true}, "inbound_nodes": [[["block_10_project_BN", 0, 0, {}], ["block_11_project_BN", 0, 0, {}]]]}, {"name": "block_12_expand", "class_name": "Conv2D", "config": {"name": "block_12_expand", "trainable": true, "filters": 576, "kernel_size": [1, 1], "strides": [1, 1], "padding": "same", "data_format": "channels_last", "dilation_rate": [1, 1], "activation": "linear", "use_bias": false, "kernel_initializer": {"class_name": "VarianceScaling", "config": {"scale": 1.0, "mode": "fan_avg", "distribution": "uniform", "seed": null}}, "bias_initializer": {"class_name": "Zeros", "config": {}}, "kernel_regularizer": null, "bias_regularizer": null, "activity_regularizer": null, "kernel_constraint": null, "bias_constraint": null}, "inbound_nodes": [[["block_11_add", 0, 0, {}]]]}, {"name": "block_12_expand_BN", "class_name": "BatchNormalization", "config": {"name": "block_12_expand_BN", "trainable": true, "axis": -1, "momentum": 0.999, "epsilon": 0.001, "center": true, "scale": true, "beta_initializer": {"class_name": "Zeros", "config": {}}, "gamma_initializer": {"class_name": "Ones", "config": {}}, "moving_mean_initializer": {"class_name": "Zeros", "config": {}}, "moving_variance_initializer": {"class_name": "Ones", "config": {}}, "beta_regularizer": null, "gamma_regularizer": null, "beta_constraint": null, "gamma_constraint": null}, "inbound_nodes": [[["block_12_expand", 0, 0, {}]]]}, {"name": "block_12_expand_relu", "class_name": "ReLU", "config": {"name": "block_12_expand_relu", "trainable": true, "max_value": 6.0}, "inbound_nodes": [[["block_12_expand_BN", 0, 0, {}]]]}, {"name": "block_12_depthwise", "class_name": "DepthwiseConv2D", "config": {"name": "block_12_depthwise", "trainable": true, "kernel_size": [3, 3], "strides": [1, 1], "padding": "same", "data_format": "channels_last", "dilation_rate": [1, 1], "activation": "linear", "use_bias": false, "bias_initializer": {"class_name": "Zeros", "config": {}}, "bias_regularizer": null, "activity_regularizer": null, "bias_constraint": null, "depth_multiplier": 1, "depthwise_initializer": {"class_name": "VarianceScaling", "config": {"scale": 1.0, "mode": "fan_avg", "distribution": "uniform", "seed": null}}, "depthwise_regularizer": null, "depthwise_constraint": null}, "inbound_nodes": [[["block_12_expand_relu", 0, 0, {}]]]}, {"name": "block_12_depthwise_BN", "class_name": "BatchNormalization", "config": {"name": "block_12_depthwise_BN", "trainable": true, "axis": -1, "momentum": 0.999, "epsilon": 0.001, "center": true, "scale": true, "beta_initializer": {"class_name": "Zeros", "config": {}}, "gamma_initializer": {"class_name": "Ones", "config": {}}, "moving_mean_initializer": {"class_name": "Zeros", "config": {}}, "moving_variance_initializer": {"class_name": "Ones", "config": {}}, "beta_regularizer": null, "gamma_regularizer": null, "beta_constraint": null, "gamma_constraint": null}, "inbound_nodes": [[["block_12_depthwise", 0, 0, {}]]]}, {"name": "block_12_depthwise_relu", "class_name": "ReLU", "config": {"name": "block_12_depthwise_relu", "trainable": true, "max_value": 6.0}, "inbound_nodes": [[["block_12_depthwise_BN", 0, 0, {}]]]}, {"name": "block_12_project", "class_name": "Conv2D", "config": {"name": "block_12_project", "trainable": true, "filters": 96, "kernel_size": [1, 1], "strides": [1, 1], "padding": "same", "data_format": "channels_last", "dilation_rate": [1, 1], "activation": "linear", "use_bias": false, "kernel_initializer": {"class_name": "VarianceScaling", "config": {"scale": 1.0, "mode": "fan_avg", "distribution": "uniform", "seed": null}}, "bias_initializer": {"class_name": "Zeros", "config": {}}, "kernel_regularizer": null, "bias_regularizer": null, "activity_regularizer": null, "kernel_constraint": null, "bias_constraint": null}, "inbound_nodes": [[["block_12_depthwise_relu", 0, 0, {}]]]}, {"name": "block_12_project_BN", "class_name": "BatchNormalization", "config": {"name": "block_12_project_BN", "trainable": true, "axis": -1, "momentum": 0.999, "epsilon": 0.001, "center": true, "scale": true, "beta_initializer": {"class_name": "Zeros", "config": {}}, "gamma_initializer": {"class_name": "Ones", "config": {}}, "moving_mean_initializer": {"class_name": "Zeros", "config": {}}, "moving_variance_initializer": {"class_name": "Ones", "config": {}}, "beta_regularizer": null, "gamma_regularizer": null, "beta_constraint": null, "gamma_constraint": null}, "inbound_nodes": [[["block_12_project", 0, 0, {}]]]}, {"name": "block_12_add", "class_name": "Add", "config": {"name": "block_12_add", "trainable": true}, "inbound_nodes": [[["block_11_add", 0, 0, {}], ["block_12_project_BN", 0, 0, {}]]]}, {"name": "block_13_expand", "class_name": "Conv2D", "config": {"name": "block_13_expand", "trainable": true, "filters": 576, "kernel_size": [1, 1], "strides": [1, 1], "padding": "same", "data_format": "channels_last", "dilation_rate": [1, 1], "activation": "linear", "use_bias": false, "kernel_initializer": {"class_name": "VarianceScaling", "config": {"scale": 1.0, "mode": "fan_avg", "distribution": "uniform", "seed": null}}, "bias_initializer": {"class_name": "Zeros", "config": {}}, "kernel_regularizer": null, "bias_regularizer": null, "activity_regularizer": null, "kernel_constraint": null, "bias_constraint": null}, "inbound_nodes": [[["block_12_add", 0, 0, {}]]]}, {"name": "block_13_expand_BN", "class_name": "BatchNormalization", "config": {"name": "block_13_expand_BN", "trainable": true, "axis": -1, "momentum": 0.999, "epsilon": 0.001, "center": true, "scale": true, "beta_initializer": {"class_name": "Zeros", "config": {}}, "gamma_initializer": {"class_name": "Ones", "config": {}}, "moving_mean_initializer": {"class_name": "Zeros", "config": {}}, "moving_variance_initializer": {"class_name": "Ones", "config": {}}, "beta_regularizer": null, "gamma_regularizer": null, "beta_constraint": null, "gamma_constraint": null}, "inbound_nodes": [[["block_13_expand", 0, 0, {}]]]}, {"name": "block_13_expand_relu", "class_name": "ReLU", "config": {"name": "block_13_expand_relu", "trainable": true, "max_value": 6.0}, "inbound_nodes": [[["block_13_expand_BN", 0, 0, {}]]]}, {"name": "block_13_depthwise", "class_name": "DepthwiseConv2D", "config": {"name": "block_13_depthwise", "trainable": true, "kernel_size": [3, 3], "strides": [2, 2], "padding": "same", "data_format": "channels_last", "dilation_rate": [1, 1], "activation": "linear", "use_bias": false, "bias_initializer": {"class_name": "Zeros", "config": {}}, "bias_regularizer": null, "activity_regularizer": null, "bias_constraint": null, "depth_multiplier": 1, "depthwise_initializer": {"class_name": "VarianceScaling", "config": {"scale": 1.0, "mode": "fan_avg", "distribution": "uniform", "seed": null}}, "depthwise_regularizer": null, "depthwise_constraint": null}, "inbound_nodes": [[["block_13_expand_relu", 0, 0, {}]]]}, {"name": "block_13_depthwise_BN", "class_name": "BatchNormalization", "config": {"name": "block_13_depthwise_BN", "trainable": true, "axis": -1, "momentum": 0.999, "epsilon": 0.001, "center": true, "scale": true, "beta_initializer": {"class_name": "Zeros", "config": {}}, "gamma_initializer": {"class_name": "Ones", "config": {}}, "moving_mean_initializer": {"class_name": "Zeros", "config": {}}, "moving_variance_initializer": {"class_name": "Ones", "config": {}}, "beta_regularizer": null, "gamma_regularizer": null, "beta_constraint": null, "gamma_constraint": null}, "inbound_nodes": [[["block_13_depthwise", 0, 0, {}]]]}, {"name": "block_13_depthwise_relu", "class_name": "ReLU", "config": {"name": "block_13_depthwise_relu", "trainable": true, "max_value": 6.0}, "inbound_nodes": [[["block_13_depthwise_BN", 0, 0, {}]]]}, {"name": "block_13_project", "class_name": "Conv2D", "config": {"name": "block_13_project", "trainable": true, "filters": 160, "kernel_size": [1, 1], "strides": [1, 1], "padding": "same", "data_format": "channels_last", "dilation_rate": [1, 1], "activation": "linear", "use_bias": false, "kernel_initializer": {"class_name": "VarianceScaling", "config": {"scale": 1.0, "mode": "fan_avg", "distribution": "uniform", "seed": null}}, "bias_initializer": {"class_name": "Zeros", "config": {}}, "kernel_regularizer": null, "bias_regularizer": null, "activity_regularizer": null, "kernel_constraint": null, "bias_constraint": null}, "inbound_nodes": [[["block_13_depthwise_relu", 0, 0, {}]]]}, {"name": "block_13_project_BN", "class_name": "BatchNormalization", "config": {"name": "block_13_project_BN", "trainable": true, "axis": -1, "momentum": 0.999, "epsilon": 0.001, "center": true, "scale": true, "beta_initializer": {"class_name": "Zeros", "config": {}}, "gamma_initializer": {"class_name": "Ones", "config": {}}, "moving_mean_initializer": {"class_name": "Zeros", "config": {}}, "moving_variance_initializer": {"class_name": "Ones", "config": {}}, "beta_regularizer": null, "gamma_regularizer": null, "beta_constraint": null, "gamma_constraint": null}, "inbound_nodes": [[["block_13_project", 0, 0, {}]]]}, {"name": "block_14_expand", "class_name": "Conv2D", "config": {"name": "block_14_expand", "trainable": true, "filters": 960, "kernel_size": [1, 1], "strides": [1, 1], "padding": "same", "data_format": "channels_last", "dilation_rate": [1, 1], "activation": "linear", "use_bias": false, "kernel_initializer": {"class_name": "VarianceScaling", "config": {"scale": 1.0, "mode": "fan_avg", "distribution": "uniform", "seed": null}}, "bias_initializer": {"class_name": "Zeros", "config": {}}, "kernel_regularizer": null, "bias_regularizer": null, "activity_regularizer": null, "kernel_constraint": null, "bias_constraint": null}, "inbound_nodes": [[["block_13_project_BN", 0, 0, {}]]]}, {"name": "block_14_expand_BN", "class_name": "BatchNormalization", "config": {"name": "block_14_expand_BN", "trainable": true, "axis": -1, "momentum": 0.999, "epsilon": 0.001, "center": true, "scale": true, "beta_initializer": {"class_name": "Zeros", "config": {}}, "gamma_initializer": {"class_name": "Ones", "config": {}}, "moving_mean_initializer": {"class_name": "Zeros", "config": {}}, "moving_variance_initializer": {"class_name": "Ones", "config": {}}, "beta_regularizer": null, "gamma_regularizer": null, "beta_constraint": null, "gamma_constraint": null}, "inbound_nodes": [[["block_14_expand", 0, 0, {}]]]}, {"name": "block_14_expand_relu", "class_name": "ReLU", "config": {"name": "block_14_expand_relu", "trainable": true, "max_value": 6.0}, "inbound_nodes": [[["block_14_expand_BN", 0, 0, {}]]]}, {"name": "block_14_depthwise", "class_name": "DepthwiseConv2D", "config": {"name": "block_14_depthwise", "trainable": true, "kernel_size": [3, 3], "strides": [1, 1], "padding": "same", "data_format": "channels_last", "dilation_rate": [1, 1], "activation": "linear", "use_bias": false, "bias_initializer": {"class_name": "Zeros", "config": {}}, "bias_regularizer": null, "activity_regularizer": null, "bias_constraint": null, "depth_multiplier": 1, "depthwise_initializer": {"class_name": "VarianceScaling", "config": {"scale": 1.0, "mode": "fan_avg", "distribution": "uniform", "seed": null}}, "depthwise_regularizer": null, "depthwise_constraint": null}, "inbound_nodes": [[["block_14_expand_relu", 0, 0, {}]]]}, {"name": "block_14_depthwise_BN", "class_name": "BatchNormalization", "config": {"name": "block_14_depthwise_BN", "trainable": true, "axis": -1, "momentum": 0.999, "epsilon": 0.001, "center": true, "scale": true, "beta_initializer": {"class_name": "Zeros", "config": {}}, "gamma_initializer": {"class_name": "Ones", "config": {}}, "moving_mean_initializer": {"class_name": "Zeros", "config": {}}, "moving_variance_initializer": {"class_name": "Ones", "config": {}}, "beta_regularizer": null, "gamma_regularizer": null, "beta_constraint": null, "gamma_constraint": null}, "inbound_nodes": [[["block_14_depthwise", 0, 0, {}]]]}, {"name": "block_14_depthwise_relu", "class_name": "ReLU", "config": {"name": "block_14_depthwise_relu", "trainable": true, "max_value": 6.0}, "inbound_nodes": [[["block_14_depthwise_BN", 0, 0, {}]]]}, {"name": "block_14_project", "class_name": "Conv2D", "config": {"name": "block_14_project", "trainable": true, "filters": 160, "kernel_size": [1, 1], "strides": [1, 1], "padding": "same", "data_format": "channels_last", "dilation_rate": [1, 1], "activation": "linear", "use_bias": false, "kernel_initializer": {"class_name": "VarianceScaling", "config": {"scale": 1.0, "mode": "fan_avg", "distribution": "uniform", "seed": null}}, "bias_initializer": {"class_name": "Zeros", "config": {}}, "kernel_regularizer": null, "bias_regularizer": null, "activity_regularizer": null, "kernel_constraint": null, "bias_constraint": null}, "inbound_nodes": [[["block_14_depthwise_relu", 0, 0, {}]]]}, {"name": "block_14_project_BN", "class_name": "BatchNormalization", "config": {"name": "block_14_project_BN", "trainable": true, "axis": -1, "momentum": 0.999, "epsilon": 0.001, "center": true, "scale": true, "beta_initializer": {"class_name": "Zeros", "config": {}}, "gamma_initializer": {"class_name": "Ones", "config": {}}, "moving_mean_initializer": {"class_name": "Zeros", "config": {}}, "moving_variance_initializer": {"class_name": "Ones", "config": {}}, "beta_regularizer": null, "gamma_regularizer": null, "beta_constraint": null, "gamma_constraint": null}, "inbound_nodes": [[["block_14_project", 0, 0, {}]]]}, {"name": "block_14_add", "class_name": "Add", "config": {"name": "block_14_add", "trainable": true}, "inbound_nodes": [[["block_13_project_BN", 0, 0, {}], ["block_14_project_BN", 0, 0, {}]]]}, {"name": "block_15_expand", "class_name": "Conv2D", "config": {"name": "block_15_expand", "trainable": true, "filters": 960, "kernel_size": [1, 1], "strides": [1, 1], "padding": "same", "data_format": "channels_last", "dilation_rate": [1, 1], "activation": "linear", "use_bias": false, "kernel_initializer": {"class_name": "VarianceScaling", "config": {"scale": 1.0, "mode": "fan_avg", "distribution": "uniform", "seed": null}}, "bias_initializer": {"class_name": "Zeros", "config": {}}, "kernel_regularizer": null, "bias_regularizer": null, "activity_regularizer": null, "kernel_constraint": null, "bias_constraint": null}, "inbound_nodes": [[["block_14_add", 0, 0, {}]]]}, {"name": "block_15_expand_BN", "class_name": "BatchNormalization", "config": {"name": "block_15_expand_BN", "trainable": true, "axis": -1, "momentum": 0.999, "epsilon": 0.001, "center": true, "scale": true, "beta_initializer": {"class_name": "Zeros", "config": {}}, "gamma_initializer": {"class_name": "Ones", "config": {}}, "moving_mean_initializer": {"class_name": "Zeros", "config": {}}, "moving_variance_initializer": {"class_name": "Ones", "config": {}}, "beta_regularizer": null, "gamma_regularizer": null, "beta_constraint": null, "gamma_constraint": null}, "inbound_nodes": [[["block_15_expand", 0, 0, {}]]]}, {"name": "block_15_expand_relu", "class_name": "ReLU", "config": {"name": "block_15_expand_relu", "trainable": true, "max_value": 6.0}, "inbound_nodes": [[["block_15_expand_BN", 0, 0, {}]]]}, {"name": "block_15_depthwise", "class_name": "DepthwiseConv2D", "config": {"name": "block_15_depthwise", "trainable": true, "kernel_size": [3, 3], "strides": [1, 1], "padding": "same", "data_format": "channels_last", "dilation_rate": [1, 1], "activation": "linear", "use_bias": false, "bias_initializer": {"class_name": "Zeros", "config": {}}, "bias_regularizer": null, "activity_regularizer": null, "bias_constraint": null, "depth_multiplier": 1, "depthwise_initializer": {"class_name": "VarianceScaling", "config": {"scale": 1.0, "mode": "fan_avg", "distribution": "uniform", "seed": null}}, "depthwise_regularizer": null, "depthwise_constraint": null}, "inbound_nodes": [[["block_15_expand_relu", 0, 0, {}]]]}, {"name": "block_15_depthwise_BN", "class_name": "BatchNormalization", "config": {"name": "block_15_depthwise_BN", "trainable": true, "axis": -1, "momentum": 0.999, "epsilon": 0.001, "center": true, "scale": true, "beta_initializer": {"class_name": "Zeros", "config": {}}, "gamma_initializer": {"class_name": "Ones", "config": {}}, "moving_mean_initializer": {"class_name": "Zeros", "config": {}}, "moving_variance_initializer": {"class_name": "Ones", "config": {}}, "beta_regularizer": null, "gamma_regularizer": null, "beta_constraint": null, "gamma_constraint": null}, "inbound_nodes": [[["block_15_depthwise", 0, 0, {}]]]}, {"name": "block_15_depthwise_relu", "class_name": "ReLU", "config": {"name": "block_15_depthwise_relu", "trainable": true, "max_value": 6.0}, "inbound_nodes": [[["block_15_depthwise_BN", 0, 0, {}]]]}, {"name": "block_15_project", "class_name": "Conv2D", "config": {"name": "block_15_project", "trainable": true, "filters": 160, "kernel_size": [1, 1], "strides": [1, 1], "padding": "same", "data_format": "channels_last", "dilation_rate": [1, 1], "activation": "linear", "use_bias": false, "kernel_initializer": {"class_name": "VarianceScaling", "config": {"scale": 1.0, "mode": "fan_avg", "distribution": "uniform", "seed": null}}, "bias_initializer": {"class_name": "Zeros", "config": {}}, "kernel_regularizer": null, "bias_regularizer": null, "activity_regularizer": null, "kernel_constraint": null, "bias_constraint": null}, "inbound_nodes": [[["block_15_depthwise_relu", 0, 0, {}]]]}, {"name": "block_15_project_BN", "class_name": "BatchNormalization", "config": {"name": "block_15_project_BN", "trainable": true, "axis": -1, "momentum": 0.999, "epsilon": 0.001, "center": true, "scale": true, "beta_initializer": {"class_name": "Zeros", "config": {}}, "gamma_initializer": {"class_name": "Ones", "config": {}}, "moving_mean_initializer": {"class_name": "Zeros", "config": {}}, "moving_variance_initializer": {"class_name": "Ones", "config": {}}, "beta_regularizer": null, "gamma_regularizer": null, "beta_constraint": null, "gamma_constraint": null}, "inbound_nodes": [[["block_15_project", 0, 0, {}]]]}, {"name": "block_15_add", "class_name": "Add", "config": {"name": "block_15_add", "trainable": true}, "inbound_nodes": [[["block_14_add", 0, 0, {}], ["block_15_project_BN", 0, 0, {}]]]}, {"name": "block_16_expand", "class_name": "Conv2D", "config": {"name": "block_16_expand", "trainable": true, "filters": 960, "kernel_size": [1, 1], "strides": [1, 1], "padding": "same", "data_format": "channels_last", "dilation_rate": [1, 1], "activation": "linear", "use_bias": false, "kernel_initializer": {"class_name": "VarianceScaling", "config": {"scale": 1.0, "mode": "fan_avg", "distribution": "uniform", "seed": null}}, "bias_initializer": {"class_name": "Zeros", "config": {}}, "kernel_regularizer": null, "bias_regularizer": null, "activity_regularizer": null, "kernel_constraint": null, "bias_constraint": null}, "inbound_nodes": [[["block_15_add", 0, 0, {}]]]}, {"name": "block_16_expand_BN", "class_name": "BatchNormalization", "config": {"name": "block_16_expand_BN", "trainable": true, "axis": -1, "momentum": 0.999, "epsilon": 0.001, "center": true, "scale": true, "beta_initializer": {"class_name": "Zeros", "config": {}}, "gamma_initializer": {"class_name": "Ones", "config": {}}, "moving_mean_initializer": {"class_name": "Zeros", "config": {}}, "moving_variance_initializer": {"class_name": "Ones", "config": {}}, "beta_regularizer": null, "gamma_regularizer": null, "beta_constraint": null, "gamma_constraint": null}, "inbound_nodes": [[["block_16_expand", 0, 0, {}]]]}, {"name": "block_16_expand_relu", "class_name": "ReLU", "config": {"name": "block_16_expand_relu", "trainable": true, "max_value": 6.0}, "inbound_nodes": [[["block_16_expand_BN", 0, 0, {}]]]}, {"name": "block_16_depthwise", "class_name": "DepthwiseConv2D", "config": {"name": "block_16_depthwise", "trainable": true, "kernel_size": [3, 3], "strides": [1, 1], "padding": "same", "data_format": "channels_last", "dilation_rate": [1, 1], "activation": "linear", "use_bias": false, "bias_initializer": {"class_name": "Zeros", "config": {}}, "bias_regularizer": null, "activity_regularizer": null, "bias_constraint": null, "depth_multiplier": 1, "depthwise_initializer": {"class_name": "VarianceScaling", "config": {"scale": 1.0, "mode": "fan_avg", "distribution": "uniform", "seed": null}}, "depthwise_regularizer": null, "depthwise_constraint": null}, "inbound_nodes": [[["block_16_expand_relu", 0, 0, {}]]]}, {"name": "block_16_depthwise_BN", "class_name": "BatchNormalization", "config": {"name": "block_16_depthwise_BN", "trainable": true, "axis": -1, "momentum": 0.999, "epsilon": 0.001, "center": true, "scale": true, "beta_initializer": {"class_name": "Zeros", "config": {}}, "gamma_initializer": {"class_name": "Ones", "config": {}}, "moving_mean_initializer": {"class_name": "Zeros", "config": {}}, "moving_variance_initializer": {"class_name": "Ones", "config": {}}, "beta_regularizer": null, "gamma_regularizer": null, "beta_constraint": null, "gamma_constraint": null}, "inbound_nodes": [[["block_16_depthwise", 0, 0, {}]]]}, {"name": "block_16_depthwise_relu", "class_name": "ReLU", "config": {"name": "block_16_depthwise_relu", "trainable": true, "max_value": 6.0}, "inbound_nodes": [[["block_16_depthwise_BN", 0, 0, {}]]]}, {"name": "block_16_project", "class_name": "Conv2D", "config": {"name": "block_16_project", "trainable": true, "filters": 320, "kernel_size": [1, 1], "strides": [1, 1], "padding": "same", "data_format": "channels_last", "dilation_rate": [1, 1], "activation": "linear", "use_bias": false, "kernel_initializer": {"class_name": "VarianceScaling", "config": {"scale": 1.0, "mode": "fan_avg", "distribution": "uniform", "seed": null}}, "bias_initializer": {"class_name": "Zeros", "config": {}}, "kernel_regularizer": null, "bias_regularizer": null, "activity_regularizer": null, "kernel_constraint": null, "bias_constraint": null}, "inbound_nodes": [[["block_16_depthwise_relu", 0, 0, {}]]]}, {"name": "block_16_project_BN", "class_name": "BatchNormalization", "config": {"name": "block_16_project_BN", "trainable": true, "axis": -1, "momentum": 0.999, "epsilon": 0.001, "center": true, "scale": true, "beta_initializer": {"class_name": "Zeros", "config": {}}, "gamma_initializer": {"class_name": "Ones", "config": {}}, "moving_mean_initializer": {"class_name": "Zeros", "config": {}}, "moving_variance_initializer": {"class_name": "Ones", "config": {}}, "beta_regularizer": null, "gamma_regularizer": null, "beta_constraint": null, "gamma_constraint": null}, "inbound_nodes": [[["block_16_project", 0, 0, {}]]]}, {"name": "Conv_1", "class_name": "Conv2D", "config": {"name": "Conv_1", "trainable": true, "filters": 1280, "kernel_size": [1, 1], "strides": [1, 1], "padding": "valid", "data_format": "channels_last", "dilation_rate": [1, 1], "activation": "linear", "use_bias": false, "kernel_initializer": {"class_name": "VarianceScaling", "config": {"scale": 1.0, "mode": "fan_avg", "distribution": "uniform", "seed": null}}, "bias_initializer": {"class_name": "Zeros", "config": {}}, "kernel_regularizer": null, "bias_regularizer": null, "activity_regularizer": null, "kernel_constraint": null, "bias_constraint": null}, "inbound_nodes": [[["block_16_project_BN", 0, 0, {}]]]}, {"name": "Conv_1_bn", "class_name": "BatchNormalization", "config": {"name": "Conv_1_bn", "trainable": true, "axis": -1, "momentum": 0.999, "epsilon": 0.001, "center": true, "scale": true, "beta_initializer": {"class_name": "Zeros", "config": {}}, "gamma_initializer": {"class_name": "Ones", "config": {}}, "moving_mean_initializer": {"class_name": "Zeros", "config": {}}, "moving_variance_initializer": {"class_name": "Ones", "config": {}}, "beta_regularizer": null, "gamma_regularizer": null, "beta_constraint": null, "gamma_constraint": null}, "inbound_nodes": [[["Conv_1", 0, 0, {}]]]}, {"name": "out_relu", "class_name": "ReLU", "config": {"name": "out_relu", "trainable": true, "max_value": 6.0}, "inbound_nodes": [[["Conv_1_bn", 0, 0, {}]]]}, {"name": "conv2d_1", "class_name": "Conv2D", "config": {"name": "conv2d_1", "trainable": true, "filters": 512, "kernel_size": [3, 3], "strides": [1, 1], "padding": "same", "data_format": "channels_last", "dilation_rate": [1, 1], "activation": "relu", "use_bias": true, "kernel_initializer": {"class_name": "VarianceScaling", "config": {"scale": 1.0, "mode": "fan_avg", "distribution": "uniform", "seed": null}}, "bias_initializer": {"class_name": "Zeros", "config": {}}, "kernel_regularizer": null, "bias_regularizer": null, "activity_regularizer": null, "kernel_constraint": null, "bias_constraint": null}, "inbound_nodes": [[["out_relu", 0, 0, {}]]]}, {"name": "dropout_1", "class_name": "Dropout", "config": {"name": "dropout_1", "trainable": true, "rate": 0.4, "noise_shape": null, "seed": null}, "inbound_nodes": [[["conv2d_1", 0, 0, {}]]]}, {"name": "batch_normalization_1", "class_name": "BatchNormalization", "config": {"name": "batch_normalization_1", "trainable": true, "axis": -1, "momentum": 0.99, "epsilon": 0.001, "center": true, "scale": true, "beta_initializer": {"class_name": "Zeros", "config": {}}, "gamma_initializer": {"class_name": "Ones", "config": {}}, "moving_mean_initializer": {"class_name": "Zeros", "config": {}}, "moving_variance_initializer": {"class_name": "Ones", "config": {}}, "beta_regularizer": null, "gamma_regularizer": null, "beta_constraint": null, "gamma_constraint": null}, "inbound_nodes": [[["dropout_1", 0, 0, {}]]]}, {"name": "leaky_re_lu_1", "class_name": "LeakyReLU", "config": {"name": "leaky_re_lu_1", "trainable": true, "alpha": 0.10000000149011612}, "inbound_nodes": [[["batch_normalization_1", 0, 0, {}]]]}, {"name": "conv2d_2", "class_name": "Conv2D", "config": {"name": "conv2d_2", "trainable": true, "filters": 128, "kernel_size": [3, 3], "strides": [1, 1], "padding": "same", "data_format": "channels_last", "dilation_rate": [1, 1], "activation": "relu", "use_bias": true, "kernel_initializer": {"class_name": "VarianceScaling", "config": {"scale": 1.0, "mode": "fan_avg", "distribution": "uniform", "seed": null}}, "bias_initializer": {"class_name": "Zeros", "config": {}}, "kernel_regularizer": null, "bias_regularizer": null, "activity_regularizer": null, "kernel_constraint": null, "bias_constraint": null}, "inbound_nodes": [[["leaky_re_lu_1", 0, 0, {}]]]}, {"name": "dropout_2", "class_name": "Dropout", "config": {"name": "dropout_2", "trainable": true, "rate": 0.4, "noise_shape": null, "seed": null}, "inbound_nodes": [[["conv2d_2", 0, 0, {}]]]}, {"name": "batch_normalization_2", "class_name": "BatchNormalization", "config": {"name": "batch_normalization_2", "trainable": true, "axis": -1, "momentum": 0.99, "epsilon": 0.001, "center": true, "scale": true, "beta_initializer": {"class_name": "Zeros", "config": {}}, "gamma_initializer": {"class_name": "Ones", "config": {}}, "moving_mean_initializer": {"class_name": "Zeros", "config": {}}, "moving_variance_initializer": {"class_name": "Ones", "config": {}}, "beta_regularizer": null, "gamma_regularizer": null, "beta_constraint": null, "gamma_constraint": null}, "inbound_nodes": [[["dropout_2", 0, 0, {}]]]}, {"name": "leaky_re_lu_2", "class_name": "LeakyReLU", "config": {"name": "leaky_re_lu_2", "trainable": true, "alpha": 0.10000000149011612}, "inbound_nodes": [[["batch_normalization_2", 0, 0, {}]]]}, {"name": "conv2d_3", "class_name": "Conv2D", "config": {"name": "conv2d_3", "trainable": true, "filters": 5, "kernel_size": [3, 3], "strides": [1, 1], "padding": "same", "data_format": "channels_last", "dilation_rate": [1, 1], "activation": "relu", "use_bias": true, "kernel_initializer": {"class_name": "VarianceScaling", "config": {"scale": 1.0, "mode": "fan_avg", "distribution": "uniform", "seed": null}}, "bias_initializer": {"class_name": "Zeros", "config": {}}, "kernel_regularizer": null, "bias_regularizer": null, "activity_regularizer": null, "kernel_constraint": null, "bias_constraint": null}, "inbound_nodes": [[["leaky_re_lu_2", 0, 0, {}]]]}, {"name": "reshape_1", "class_name": "Reshape", "config": {"name": "reshape_1", "trainable": true, "target_shape": [16, 16, 1, 5]}, "inbound_nodes": [[["conv2d_3", 0, 0, {}]]]}], "input_layers": [["input_1", 0, 0]], "output_layers": [["reshape_1", 0, 0]]}, "keras_version": "2.2.2", "backend": "tensorflow"}